app/src/main/ml/sine_model.tflite (tflite, 3168 bytes, 5 tensors)

sequential/dense_1/BiasAdd/ReadVariableOp f4 [16]
000000 a6 f7 cc 3e 01 a0 15 3e c7 17 af 3e f0 de 27 3e
       0.4003269 0.14611818 0.34197828 0.16393638
000010 00 00 00 00 3c a7 d6 3e a4 d9 9e 3e 00 00 00 00
       0.0 0.41924465 0.31025422 0.0
000020 88 2f 41 3e 62 6b d3 bd 8f b4 71 be 98 f8 7b bd
       0.18865788 -0.10323216 -0.23604034 -0.061516374
000030 95 7b 39 be 00 00 00 00 00 00 00 00 72 16 42 3e
       -0.18113549 0.0 0.0 0.18953875

sequential/dense/BiasAdd/ReadVariableOp f4 [16]
000000 00 00 00 00 00 00 00 00 07 1a 85 3d 00 00 00 00
       0.0 0.0 0.06499105 0.0
000010 00 00 00 00 8c b5 8f 3e d8 c7 c3 3e 00 00 00 00
       0.0 0.28068197 0.38238406 0.0
000020 00 00 00 00 00 00 00 00 c6 c8 83 3f ca 6c a5 bd
       0.0 0.0 1.0295646 -0.080773905
000030 33 a0 58 bf 00 00 00 00 5e 3a be 3d 40 72 df be
       -0.84619445 0.0 0.092884764 -0.43641853

sequential/dense/MatMul f4 [16, 1]
000000 43 b9 11 bf 94 a0 16 be f1 64 0f 3f a0 84 a2 bd
       -0.5692331 -0.14709693 0.560134 -0.079354525
000010 12 1a 46 be ba a4 1a 3e e2 18 13 3d 70 f7 03 be
       -0.19345883 0.151019 0.035912402 -0.12887359
000020 7e 8e d2 be 03 52 86 be 93 20 2f 3e 31 55 f7 3e
       -0.41124338 -0.26234445 0.1710227 0.48307183
000030 06 c8 a2 3e 96 30 d8 be 9f 27 af 3e 5e 99 6a 3e
       0.3179323 -0.42224568 0.34209916 0.22910067

sequential/dense_1/MatMul f4 [16, 16]
000000 6a 77 ba be f6 c4 26 3e f6 63 e9 be b7 fd dc 3e
       -0.3641923 0.16286072 -0.45584077 0.4316232
000010 98 a6 90 bd fa af ca 3e 3a 0c 1c 3f ab 1a c9 3e
       -0.07063025 0.39587384 0.60956156 0.3927816
000020 25 c9 c7 be 1e fb 4e 3e 75 65 0b 3f 80 74 d5 bd
       -0.3902065 0.20212981 0.54451686 -0.10422611
000030 61 61 9b bf 61 d1 c6 3e f0 0d dd 3e 3f 0a 86 bf
       -1.2139093 0.38831618 0.43174696 -1.0471877
000040 34 93 98 3d 50 63 83 3c 17 29 ae 3e 97 e3 b3 3e
       0.07449952 0.016038567 0.34015724 0.35134575
000050 f4 f3 9a 3d 05 dd 74 be 7e dd fe 3d 21 cf 9b 3e
       0.075660616 -0.23912437 0.1244459 0.30431464
000060 b2 df 68 3e c3 30 93 3e 45 1c 01 3f 56 c2 c2 bd
       0.22741583 0.2874814 0.5043376 -0.09509723
000070 98 6d b9 be 08 d6 c8 be 22 07 86 be 98 94 ce bd
       -0.36216426 -0.39225793 -0.26177317 -0.10086936
000080 70 cf dc bc 24 79 e2 3d 9b 09 78 bf ac 8a d7 be
       -0.026954383 0.11058262 -0.96889657 -0.42097986
000090 01 d4 bb be fa d1 d2 3e 80 1c 98 3e 02 9b 13 3e
       -0.36685184 0.41175824 0.29709244 0.144146
0000a0 32 b6 6a 3e fd bc c6 be b3 28 e7 3e 78 d5 0e bf
       0.22921064 -0.38816062 0.4514824 -0.5579448
0000b0 58 bc c7 be ae 9d 60 3e 46 6a 66 bf 8e a2 1a 3e
       -0.39010882 0.2193515 -0.9000591 0.15101072
0000c0 4e d0 23 be 46 9e 63 3e 93 92 19 3e 7c 5b c7 be
       -0.1599743 0.22228345 0.1499732 -0.38936985
0000d0 c0 bf 8a be 98 1a 8d bd cd d2 df ba d0 57 d1 bc
       -0.2709942 -0.06889838 -0.0017076373 -0.025554568
0000e0 9c d6 e7 3d b7 fe b2 be a7 a4 d3 3e 6c 46 db 3d
       0.1132023 -0.34959957 0.41336557 0.10706791
0000f0 04 5d 6b bf f1 ba da be d4 5f 97 3d da a4 4f be
       -0.91938806 -0.4272075 0.07391325 -0.2027773
000100 aa 56 56 3e 50 9d b7 be f2 df 5e 3e 38 19 09 be
       0.20931497 -0.35862207 0.21765116 -0.13388526
000110 3b 45 d3 3e f6 c0 26 be 91 2c b9 be 06 5d 7d 3e
       0.41263756 -0.16284546 -0.36166814 0.24742517
000120 a2 1c 39 3e cb 3c ad 3e 9e db 99 be a5 43 79 be
       0.18077329 0.33835444 -0.30050367 -0.2434221
000130 87 1e b5 3e b5 e3 8b 3e 0e 1f 0b 3e 34 7f f5 3d
       0.35374853 0.27322164 0.13586065 0.11987153
000140 0d 74 d3 3e b6 f4 46 be ee dc 64 3e dc 1b 8c 3d
       0.41299477 -0.19429287 0.22349903 0.06841251
000150 40 c6 77 bc 4d 9e a4 3c 69 35 02 3f a2 e1 c9 be
       -0.01512295 0.020095015 0.5086275 -0.39429957
000160 4a 20 4a 3e 9a 86 94 be 80 bb a6 3e 45 0b 72 be
       0.1973888 -0.29008943 0.32564926 -0.23637111
000170 df 46 9a bf dd aa 8e 3e 12 0d 89 be 96 ff 66 bf
       -1.2052878 0.27864733 -0.26767784 -0.90233743
000180 8a f9 94 be 47 a0 9a 3e 53 4d 18 bf ae 85 24 3e
       -0.29096633 0.30200407 -0.5949299 0.1606662
000190 ae 5c 37 3e 88 ac 5d bd f0 93 1f 3f 90 01 9e bd
       0.17906448 -0.054119617 0.6233511 -0.07715142
0001a0 72 bb 70 3e 27 92 cc 3e a7 8c 04 3f 77 08 64 bf
       0.23509005 0.39955255 0.5177712 -0.89075416
0001b0 73 1a 08 be 9b ea af 3e 04 68 39 bd 13 49 97 3e
       -0.1329134 0.34358677 -0.045265213 0.2954794
0001c0 71 d8 d2 3e 2e bd 0c 3e 24 39 08 be 35 2c 9b 3e
       0.41180757 0.13744041 -0.13303047 0.30307165
0001d0 58 de 32 bd 70 a5 a0 bd 0b b5 ae be d8 21 0f 3d
       -0.043669075 -0.07844055 -0.341225 0.034944385
0001e0 13 26 6b be 99 46 a9 be d4 33 d4 bd f0 d7 e5 bd
       -0.22963743 -0.33061674 -0.10361448 -0.112228274
0001f0 c0 c5 b7 3c 6e 07 2b 3e 7b 47 ac be b1 8b 9c 3e
       0.022433162 0.16702053 -0.33648285 0.30575326
000200 80 2b 8f 3c 35 66 96 3e 70 99 c5 3e 0b fc 87 be
       0.017476797 0.29374853 0.38593626 -0.2655948
000210 fc 53 90 3d c8 ad e4 3e 24 a6 cb bd 71 c2 cd 3e
       0.07047269 0.44663835 -0.09943798 0.4018741
000220 c0 de d1 bd 0c ca e1 3d 90 1d be bd 5b 84 ca bd
       -0.10247564 0.110248655 -0.09282982 -0.09888526
000230 32 02 22 be 00 f5 d8 3c 0c 3d 57 be 65 59 a3 be
       -0.1582115 0.026484013 -0.21019381 -0.3190414
000240 90 b9 c3 be 7f 04 77 be 7b 63 97 be 52 0a 1b be
       -0.3822751 -0.24122809 -0.29568085 -0.15140656
000250 7d a8 bc 3e a3 d4 52 be 62 2f 07 3e d5 40 82 3e
       0.36847296 -0.20588927 0.13201669 0.25440088
000260 a5 1e b9 3e 00 9e 99 3c 9e ff 02 3e 40 0f c2 be
       0.36156192 0.018752098 0.12792823 -0.3790226
000270 f0 bf 50 bd 51 15 dd be 3a fc ca bc d9 3d d6 3e
       -0.050964296 -0.43180326 -0.024778474 0.4184406
000280 d0 50 e5 3c 0f be 3e be c7 43 c1 3e 1c bc f0 3d
       0.027992636 -0.18627189 0.37747023 0.11754629
000290 d4 74 9a bd 76 76 42 3d 7c 30 09 be 7b a8 86 3e
       -0.075418144 0.047476254 -0.13397402 0.26300415
0002a0 9a ad 58 be e0 c5 7c bc 98 c6 c0 be d4 a5 97 3e
       -0.21159974 -0.015428036 -0.37651515 0.29618704
0002b0 b1 41 00 3f 58 1e 17 bd e6 b7 d2 be 43 8d 2a bd
       0.5010024 -0.036894172 -0.41155928 -0.041638624
0002c0 1d 85 c0 be ea a3 82 be d4 12 97 be 8a 41 a4 be
       -0.37601557 -0.25515682 -0.29506552 -0.32081252
0002d0 f0 b1 f1 bd 09 79 17 3d 57 de c0 3e f3 e9 8c be
       -0.11801517 0.036980662 0.37669632 -0.2752224
0002e0 28 3c 70 bd 92 4c c1 be 0d 3c 10 be d0 7c aa be
       -0.05865112 -0.3775373 -0.14085408 -0.3329835
0002f0 27 a0 b9 be bf 56 c4 be d7 96 e0 be b5 42 b9 3e
       -0.36255 -0.38347432 -0.43865082 0.36183706
000300 d5 c4 b1 3e fa 67 20 3e 76 9b dd 3d db d2 c6 3e
       0.34720483 0.15664664 0.108206674 0.38832745
000310 24 29 c3 be 37 c6 4f bd 2d 6d f2 be e4 27 82 bd
       -0.38117325 -0.05072614 -0.4734892 -0.06355265
000320 60 77 0f bd 19 f2 91 3e c4 f4 a2 bd bf e8 f9 3e
       -0.035025954 0.28505018 -0.079568416 0.48810384
000330 14 1a 7e 3f 3a 08 16 be ac 15 ae 3e f6 78 a0 3c
       0.9925854 -0.14651576 0.3400091 0.019588929
000340 b8 51 01 be a8 3f 10 3d 00 3a 4b bc 80 50 77 bc
       -0.1262883 0.035216957 -0.012403965 -0.015094876
000350 71 e3 87 3e 7a d3 97 be c0 2a 98 bb e0 f7 88 3c
       0.26540712 -0.2965353 -0.004643768 0.016719759
000360 d2 9d 2a 3e 6d 1f d0 be 87 4c 41 be f1 b1 93 3e
       0.16661766 -0.40648976 -0.18876849 0.28846696
000370 7c f0 57 be 64 13 91 bd 42 52 4f be fa ee 0b be
       -0.21087831 -0.070837766 -0.20246223 -0.13665381
000380 da 62 0b 3e d3 3b b6 3e 1a e5 8e be bf 99 bd 3e
       0.13611928 0.35592517 -0.27909166 0.3703136
000390 83 e7 42 be 0e 18 bf be 9a bd 48 3e 88 85 b0 bd
       -0.19033627 -0.3732304 0.19603577 -0.08619219
0003a0 4e 47 58 be 50 b2 3f bd c0 0f 67 bc 9d 56 bd 3e
       -0.2112095 -0.04680091 -0.014102876 0.36980143
0003b0 41 91 d3 be f1 2a da 3e e9 6d 60 be 24 81 c7 bd
       -0.41321757 0.42610887 -0.21916927 -0.097414285
0003c0 46 53 c5 be 32 d2 ce be 12 a4 8a 3e 80 77 54 3b
       -0.38540095 -0.4039474 0.270783 0.003241986
0003d0 48 e4 04 3d f3 b8 0f be e6 05 1d be 70 95 8b be
       0.03244427 -0.14035396 -0.15334281 -0.2726245
0003e0 e6 8e be be 4c 1c c4 bd 2c cc 3c 3e 35 53 0e 3e
       -0.37218398 -0.0957571 0.1843726 0.13898928
0003f0 b3 ec 49 bf aa 87 54 3e 40 a1 b8 3e e8 ef 1a bf
       -0.788768 0.20754877 0.36060524 -0.6052232

sequential/dense_2/MatMul f4 [1, 16]
000000 d7 a5 8a 3f 82 c5 5c be 7b 2b 57 bf 2d 41 57 bf
       1.083186 -0.21559718 -0.8405072 -0.84083825
000010 60 31 14 3e ba fa 91 3f a3 14 30 bf a6 27 10 bf
       0.1447196 1.1404641 -0.6878149 -0.563105
000020 51 a6 10 be 9f bf d5 3d f6 85 b3 3e 0b ae 73 3e
       -0.14125945 0.104369394 0.35063142 0.23796861
000030 21 54 8f 3e f4 09 05 3e 40 06 07 3f 16 23 c1 be
       0.27993873 0.12992078 0.5274391 -0.3772208
